{"modelTopology":{"class_name":"Model","config":{"name":"model1","layers":[{"name":"input1","class_name":"InputLayer","config":{"batch_input_shape":[null,256,1],"dtype":"float32","sparse":false,"name":"input1"},"inbound_nodes":[]},{"name":"conv1d_Conv1D1","class_name":"Conv1D","config":{"filters":16,"kernel_initializer":{"class_name":"VarianceScaling","config":{"scale":1,"mode":"fan_avg","distribution":"uniform","seed":null}},"kernel_regularizer":null,"kernel_constraint":null,"kernel_size":[16],"strides":[2],"padding":"same","dilation_rate":[1],"activation":"linear","use_bias":true,"bias_initializer":{"class_name":"Zeros","config":{}},"bias_regularizer":null,"activity_regularizer":null,"bias_constraint":null,"name":"conv1d_Conv1D1","trainable":true},"inbound_nodes":[[["input1",0,0,{}]]]},{"name":"leaky_re_lu_LeakyReLU1","class_name":"LeakyReLU","config":{"alpha":0.3,"name":"leaky_re_lu_LeakyReLU1","trainable":true},"inbound_nodes":[[["conv1d_Conv1D1",0,0,{}]]]},{"name":"conv1d_Conv1D2","class_name":"Conv1D","config":{"filters":32,"kernel_initializer":{"class_name":"VarianceScaling","config":{"scale":1,"mode":"fan_avg","distribution":"uniform","seed":null}},"kernel_regularizer":null,"kernel_constraint":null,"kernel_size":[8],"strides":[2],"padding":"same","dilation_rate":[1],"activation":"linear","use_bias":true,"bias_initializer":{"class_name":"Zeros","config":{}},"bias_regularizer":null,"activity_regularizer":null,"bias_constraint":null,"name":"conv1d_Conv1D2","trainable":true},"inbound_nodes":[[["leaky_re_lu_LeakyReLU1",0,0,{}]]]},{"name":"leaky_re_lu_LeakyReLU2","class_name":"LeakyReLU","config":{"alpha":0.3,"name":"leaky_re_lu_LeakyReLU2","trainable":true},"inbound_nodes":[[["conv1d_Conv1D2",0,0,{}]]]},{"name":"conv1d_Conv1D3","class_name":"Conv1D","config":{"filters":32,"kernel_initializer":{"class_name":"VarianceScaling","config":{"scale":1,"mode":"fan_avg","distribution":"uniform","seed":null}},"kernel_regularizer":null,"kernel_constraint":null,"kernel_size":[4],"strides":[2],"padding":"same","dilation_rate":[1],"activation":"linear","use_bias":true,"bias_initializer":{"class_name":"Zeros","config":{}},"bias_regularizer":null,"activity_regularizer":null,"bias_constraint":null,"name":"conv1d_Conv1D3","trainable":true},"inbound_nodes":[[["leaky_re_lu_LeakyReLU2",0,0,{}]]]},{"name":"leaky_re_lu_LeakyReLU3","class_name":"LeakyReLU","config":{"alpha":0.3,"name":"leaky_re_lu_LeakyReLU3","trainable":true},"inbound_nodes":[[["conv1d_Conv1D3",0,0,{}]]]},{"name":"conv1d_Conv1D4","class_name":"Conv1D","config":{"filters":32,"kernel_initializer":{"class_name":"VarianceScaling","config":{"scale":1,"mode":"fan_avg","distribution":"uniform","seed":null}},"kernel_regularizer":null,"kernel_constraint":null,"kernel_size":[4],"strides":[2],"padding":"same","dilation_rate":[1],"activation":"linear","use_bias":true,"bias_initializer":{"class_name":"Zeros","config":{}},"bias_regularizer":null,"activity_regularizer":null,"bias_constraint":null,"name":"conv1d_Conv1D4","trainable":true},"inbound_nodes":[[["leaky_re_lu_LeakyReLU3",0,0,{}]]]},{"name":"leaky_re_lu_LeakyReLU4","class_name":"LeakyReLU","config":{"alpha":0.3,"name":"leaky_re_lu_LeakyReLU4","trainable":true},"inbound_nodes":[[["conv1d_Conv1D4",0,0,{}]]]},{"name":"conv1d_Conv1D5","class_name":"Conv1D","config":{"filters":64,"kernel_initializer":{"class_name":"VarianceScaling","config":{"scale":1,"mode":"fan_avg","distribution":"uniform","seed":null}},"kernel_regularizer":null,"kernel_constraint":null,"kernel_size":[4],"strides":[2],"padding":"same","dilation_rate":[1],"activation":"linear","use_bias":true,"bias_initializer":{"class_name":"Zeros","config":{}},"bias_regularizer":null,"activity_regularizer":null,"bias_constraint":null,"name":"conv1d_Conv1D5","trainable":true},"inbound_nodes":[[["leaky_re_lu_LeakyReLU4",0,0,{}]]]},{"name":"leaky_re_lu_LeakyReLU5","class_name":"LeakyReLU","config":{"alpha":0.3,"name":"leaky_re_lu_LeakyReLU5","trainable":true},"inbound_nodes":[[["conv1d_Conv1D5",0,0,{}]]]},{"name":"conv1d_Conv1D6","class_name":"Conv1D","config":{"filters":64,"kernel_initializer":{"class_name":"VarianceScaling","config":{"scale":1,"mode":"fan_avg","distribution":"uniform","seed":null}},"kernel_regularizer":null,"kernel_constraint":null,"kernel_size":[4],"strides":[2],"padding":"same","dilation_rate":[1],"activation":"linear","use_bias":true,"bias_initializer":{"class_name":"Zeros","config":{}},"bias_regularizer":null,"activity_regularizer":null,"bias_constraint":null,"name":"conv1d_Conv1D6","trainable":true},"inbound_nodes":[[["leaky_re_lu_LeakyReLU5",0,0,{}]]]},{"name":"leaky_re_lu_LeakyReLU6","class_name":"LeakyReLU","config":{"alpha":0.3,"name":"leaky_re_lu_LeakyReLU6","trainable":true},"inbound_nodes":[[["conv1d_Conv1D6",0,0,{}]]]},{"name":"conv1d_Conv1D7","class_name":"Conv1D","config":{"filters":64,"kernel_initializer":{"class_name":"VarianceScaling","config":{"scale":1,"mode":"fan_avg","distribution":"uniform","seed":null}},"kernel_regularizer":null,"kernel_constraint":null,"kernel_size":[4],"strides":[2],"padding":"same","dilation_rate":[1],"activation":"linear","use_bias":true,"bias_initializer":{"class_name":"Zeros","config":{}},"bias_regularizer":null,"activity_regularizer":null,"bias_constraint":null,"name":"conv1d_Conv1D7","trainable":true},"inbound_nodes":[[["leaky_re_lu_LeakyReLU6",0,0,{}]]]},{"name":"leaky_re_lu_LeakyReLU7","class_name":"LeakyReLU","config":{"alpha":0.3,"name":"leaky_re_lu_LeakyReLU7","trainable":true},"inbound_nodes":[[["conv1d_Conv1D7",0,0,{}]]]},{"name":"conv1d_Conv1D8","class_name":"Conv1D","config":{"filters":128,"kernel_initializer":{"class_name":"VarianceScaling","config":{"scale":1,"mode":"fan_avg","distribution":"uniform","seed":null}},"kernel_regularizer":null,"kernel_constraint":null,"kernel_size":[4],"strides":[1],"padding":"same","dilation_rate":[1],"activation":"relu","use_bias":true,"bias_initializer":{"class_name":"Zeros","config":{}},"bias_regularizer":null,"activity_regularizer":null,"bias_constraint":null,"name":"conv1d_Conv1D8","trainable":true},"inbound_nodes":[[["leaky_re_lu_LeakyReLU7",0,0,{}]]]},{"name":"dropout_Dropout1","class_name":"Dropout","config":{"rate":0,"noise_shape":null,"seed":null,"name":"dropout_Dropout1","trainable":true},"inbound_nodes":[[["conv1d_Conv1D8",0,0,{}]]]},{"name":"sub_pixel1d_subPixel1D1","class_name":"subPixel1D","config":{"name":"sub_pixel1d_subPixel1D1","trainable":true},"inbound_nodes":[[["dropout_Dropout1",0,0,{}]]]},{"name":"concatenate_Concatenate1","class_name":"Concatenate","config":{"axis":-1,"name":"concatenate_Concatenate1","trainable":true},"inbound_nodes":[[["sub_pixel1d_subPixel1D1",0,0,{}],["leaky_re_lu_LeakyReLU6",0,0,{}]]]},{"name":"conv1d_Conv1D9","class_name":"Conv1D","config":{"filters":128,"kernel_initializer":{"class_name":"VarianceScaling","config":{"scale":1,"mode":"fan_avg","distribution":"uniform","seed":null}},"kernel_regularizer":null,"kernel_constraint":null,"kernel_size":[4],"strides":[1],"padding":"same","dilation_rate":[1],"activation":"relu","use_bias":true,"bias_initializer":{"class_name":"Zeros","config":{}},"bias_regularizer":null,"activity_regularizer":null,"bias_constraint":null,"name":"conv1d_Conv1D9","trainable":true},"inbound_nodes":[[["concatenate_Concatenate1",0,0,{}]]]},{"name":"dropout_Dropout2","class_name":"Dropout","config":{"rate":0,"noise_shape":null,"seed":null,"name":"dropout_Dropout2","trainable":true},"inbound_nodes":[[["conv1d_Conv1D9",0,0,{}]]]},{"name":"sub_pixel1d_subPixel1D2","class_name":"subPixel1D","config":{"name":"sub_pixel1d_subPixel1D2","trainable":true},"inbound_nodes":[[["dropout_Dropout2",0,0,{}]]]},{"name":"concatenate_Concatenate2","class_name":"Concatenate","config":{"axis":-1,"name":"concatenate_Concatenate2","trainable":true},"inbound_nodes":[[["sub_pixel1d_subPixel1D2",0,0,{}],["leaky_re_lu_LeakyReLU5",0,0,{}]]]},{"name":"conv1d_Conv1D10","class_name":"Conv1D","config":{"filters":64,"kernel_initializer":{"class_name":"VarianceScaling","config":{"scale":1,"mode":"fan_avg","distribution":"uniform","seed":null}},"kernel_regularizer":null,"kernel_constraint":null,"kernel_size":[4],"strides":[1],"padding":"same","dilation_rate":[1],"activation":"relu","use_bias":true,"bias_initializer":{"class_name":"Zeros","config":{}},"bias_regularizer":null,"activity_regularizer":null,"bias_constraint":null,"name":"conv1d_Conv1D10","trainable":true},"inbound_nodes":[[["concatenate_Concatenate2",0,0,{}]]]},{"name":"dropout_Dropout3","class_name":"Dropout","config":{"rate":0,"noise_shape":null,"seed":null,"name":"dropout_Dropout3","trainable":true},"inbound_nodes":[[["conv1d_Conv1D10",0,0,{}]]]},{"name":"sub_pixel1d_subPixel1D3","class_name":"subPixel1D","config":{"name":"sub_pixel1d_subPixel1D3","trainable":true},"inbound_nodes":[[["dropout_Dropout3",0,0,{}]]]},{"name":"concatenate_Concatenate3","class_name":"Concatenate","config":{"axis":-1,"name":"concatenate_Concatenate3","trainable":true},"inbound_nodes":[[["sub_pixel1d_subPixel1D3",0,0,{}],["leaky_re_lu_LeakyReLU4",0,0,{}]]]},{"name":"conv1d_Conv1D11","class_name":"Conv1D","config":{"filters":64,"kernel_initializer":{"class_name":"VarianceScaling","config":{"scale":1,"mode":"fan_avg","distribution":"uniform","seed":null}},"kernel_regularizer":null,"kernel_constraint":null,"kernel_size":[4],"strides":[1],"padding":"same","dilation_rate":[1],"activation":"relu","use_bias":true,"bias_initializer":{"class_name":"Zeros","config":{}},"bias_regularizer":null,"activity_regularizer":null,"bias_constraint":null,"name":"conv1d_Conv1D11","trainable":true},"inbound_nodes":[[["concatenate_Concatenate3",0,0,{}]]]},{"name":"dropout_Dropout4","class_name":"Dropout","config":{"rate":0,"noise_shape":null,"seed":null,"name":"dropout_Dropout4","trainable":true},"inbound_nodes":[[["conv1d_Conv1D11",0,0,{}]]]},{"name":"sub_pixel1d_subPixel1D4","class_name":"subPixel1D","config":{"name":"sub_pixel1d_subPixel1D4","trainable":true},"inbound_nodes":[[["dropout_Dropout4",0,0,{}]]]},{"name":"concatenate_Concatenate4","class_name":"Concatenate","config":{"axis":-1,"name":"concatenate_Concatenate4","trainable":true},"inbound_nodes":[[["sub_pixel1d_subPixel1D4",0,0,{}],["leaky_re_lu_LeakyReLU3",0,0,{}]]]},{"name":"conv1d_Conv1D12","class_name":"Conv1D","config":{"filters":64,"kernel_initializer":{"class_name":"VarianceScaling","config":{"scale":1,"mode":"fan_avg","distribution":"uniform","seed":null}},"kernel_regularizer":null,"kernel_constraint":null,"kernel_size":[8],"strides":[1],"padding":"same","dilation_rate":[1],"activation":"relu","use_bias":true,"bias_initializer":{"class_name":"Zeros","config":{}},"bias_regularizer":null,"activity_regularizer":null,"bias_constraint":null,"name":"conv1d_Conv1D12","trainable":true},"inbound_nodes":[[["concatenate_Concatenate4",0,0,{}]]]},{"name":"dropout_Dropout5","class_name":"Dropout","config":{"rate":0,"noise_shape":null,"seed":null,"name":"dropout_Dropout5","trainable":true},"inbound_nodes":[[["conv1d_Conv1D12",0,0,{}]]]},{"name":"sub_pixel1d_subPixel1D5","class_name":"subPixel1D","config":{"name":"sub_pixel1d_subPixel1D5","trainable":true},"inbound_nodes":[[["dropout_Dropout5",0,0,{}]]]},{"name":"concatenate_Concatenate5","class_name":"Concatenate","config":{"axis":-1,"name":"concatenate_Concatenate5","trainable":true},"inbound_nodes":[[["sub_pixel1d_subPixel1D5",0,0,{}],["leaky_re_lu_LeakyReLU2",0,0,{}]]]},{"name":"conv1d_Conv1D13","class_name":"Conv1D","config":{"filters":32,"kernel_initializer":{"class_name":"VarianceScaling","config":{"scale":1,"mode":"fan_avg","distribution":"uniform","seed":null}},"kernel_regularizer":null,"kernel_constraint":null,"kernel_size":[16],"strides":[1],"padding":"same","dilation_rate":[1],"activation":"relu","use_bias":true,"bias_initializer":{"class_name":"Zeros","config":{}},"bias_regularizer":null,"activity_regularizer":null,"bias_constraint":null,"name":"conv1d_Conv1D13","trainable":true},"inbound_nodes":[[["concatenate_Concatenate5",0,0,{}]]]},{"name":"dropout_Dropout6","class_name":"Dropout","config":{"rate":0,"noise_shape":null,"seed":null,"name":"dropout_Dropout6","trainable":true},"inbound_nodes":[[["conv1d_Conv1D13",0,0,{}]]]},{"name":"sub_pixel1d_subPixel1D6","class_name":"subPixel1D","config":{"name":"sub_pixel1d_subPixel1D6","trainable":true},"inbound_nodes":[[["dropout_Dropout6",0,0,{}]]]},{"name":"concatenate_Concatenate6","class_name":"Concatenate","config":{"axis":-1,"name":"concatenate_Concatenate6","trainable":true},"inbound_nodes":[[["sub_pixel1d_subPixel1D6",0,0,{}],["leaky_re_lu_LeakyReLU1",0,0,{}]]]},{"name":"conv1d_Conv1D14","class_name":"Conv1D","config":{"filters":2,"kernel_initializer":{"class_name":"RandomNormal","config":{"mean":0,"stddev":0.05,"seed":null}},"kernel_regularizer":null,"kernel_constraint":null,"kernel_size":[8],"strides":[1],"padding":"same","dilation_rate":[1],"activation":"linear","use_bias":true,"bias_initializer":{"class_name":"Zeros","config":{}},"bias_regularizer":null,"activity_regularizer":null,"bias_constraint":null,"name":"conv1d_Conv1D14","trainable":true},"inbound_nodes":[[["concatenate_Concatenate6",0,0,{}]]]},{"name":"sub_pixel1d_subPixel1D7","class_name":"subPixel1D","config":{"name":"sub_pixel1d_subPixel1D7","trainable":true},"inbound_nodes":[[["conv1d_Conv1D14",0,0,{}]]]},{"name":"add_Add1","class_name":"Add","config":{"name":"add_Add1","trainable":true},"inbound_nodes":[[["sub_pixel1d_subPixel1D7",0,0,{}],["input1",0,0,{}]]]}],"input_layers":[["input1",0,0]],"output_layers":[["add_Add1",0,0]]},"keras_version":"tfjs-layers 0.7.4","backend":"tensor_flow.js"},"weightsManifest":[{"paths":["weights.bin"],"weights":[{"name":"conv1d_Conv1D1/kernel","shape":[16,1,16],"dtype":"float32"},{"name":"conv1d_Conv1D1/bias","shape":[16],"dtype":"float32"},{"name":"conv1d_Conv1D2/kernel","shape":[8,16,32],"dtype":"float32"},{"name":"conv1d_Conv1D2/bias","shape":[32],"dtype":"float32"},{"name":"conv1d_Conv1D3/kernel","shape":[4,32,32],"dtype":"float32"},{"name":"conv1d_Conv1D3/bias","shape":[32],"dtype":"float32"},{"name":"conv1d_Conv1D4/kernel","shape":[4,32,32],"dtype":"float32"},{"name":"conv1d_Conv1D4/bias","shape":[32],"dtype":"float32"},{"name":"conv1d_Conv1D5/kernel","shape":[4,32,64],"dtype":"float32"},{"name":"conv1d_Conv1D5/bias","shape":[64],"dtype":"float32"},{"name":"conv1d_Conv1D6/kernel","shape":[4,64,64],"dtype":"float32"},{"name":"conv1d_Conv1D6/bias","shape":[64],"dtype":"float32"},{"name":"conv1d_Conv1D7/kernel","shape":[4,64,64],"dtype":"float32"},{"name":"conv1d_Conv1D7/bias","shape":[64],"dtype":"float32"},{"name":"conv1d_Conv1D8/kernel","shape":[4,64,128],"dtype":"float32"},{"name":"conv1d_Conv1D8/bias","shape":[128],"dtype":"float32"},{"name":"conv1d_Conv1D9/kernel","shape":[4,128,128],"dtype":"float32"},{"name":"conv1d_Conv1D9/bias","shape":[128],"dtype":"float32"},{"name":"conv1d_Conv1D10/kernel","shape":[4,128,64],"dtype":"float32"},{"name":"conv1d_Conv1D10/bias","shape":[64],"dtype":"float32"},{"name":"conv1d_Conv1D11/kernel","shape":[4,64,64],"dtype":"float32"},{"name":"conv1d_Conv1D11/bias","shape":[64],"dtype":"float32"},{"name":"conv1d_Conv1D12/kernel","shape":[8,64,64],"dtype":"float32"},{"name":"conv1d_Conv1D12/bias","shape":[64],"dtype":"float32"},{"name":"conv1d_Conv1D13/kernel","shape":[16,64,32],"dtype":"float32"},{"name":"conv1d_Conv1D13/bias","shape":[32],"dtype":"float32"},{"name":"conv1d_Conv1D14/kernel","shape":[8,32,2],"dtype":"float32"},{"name":"conv1d_Conv1D14/bias","shape":[2],"dtype":"float32"}]}]}